src/shkrl_ik/models/dqn_agent_target.pth (torch, 42753 bytes, 6 tensors)

layers.0.weight f4 [64, 6]
00000000: 2d53 58be 585f 2bbe 2942 c33d 4bab 78be
00000010: 9acd d8bd 5336 42bc d1a3 7ebe 632f 83bd
00000020: aaed 97be 3b83 413c bb1f 033e 158a 30be
00000030: e308 43be b546 93bd 1d0c e23a cafe fe3d
00000040: c997 e0bd e9e6 4fbe 4215 963e 0722 1a3d
00000050: e7c9 0f3e 70ba 8c3e d89b 863e 17ff 5c3e
00000060: 495e feba 8f5e 90be 5568 113d d95b 043e
00000070: f8aa 763e ff81 343e e99b 8c3e ad19 593e
00000080: 10ee 4bbe b1bd f7bc d422 903d cc17 9c3e
00000090: 599b e1bd 5eed 6c3d 4aff 25bd 37c7 36be
000000a0: bd92 3a3e 5174 093e 0e5c 223e 292a 7d3e
000000b0: f211 56bd 846d 15be 9407 86bd ecb1 98be
000000c0: 974d 8f3e dd8c 043d 5117 923c 535e 143d
000000d0: 5b96 253e fbc2 a13d d969 81be 7aa8 8c3d
000000e0: de4b 17be 964e 5c3e fa03 e8bd 4cf8 c93e
000000f0: fce2 37be bd1d 1a3e 31f1 2a3e 36b7 61bd
00000100: c45c cbbd 3632 973e 2588 eabd 16c5 b6bd
00000110: 6713 84be 6113 093e 99c2 653e 8740 803e
00000120: d490 ea3d 3613 c6bd b689 36be 2567 5c3e
00000130: 25f6 43be 88c9 2dbe 612a d03d 4641 aebd
00000140: b71b 023c 7a38 3ebd e4c3 56be 4599 5c3d
00000150: 5104 053e 2cb4 80be 8f31 303c ed00 ab3e
00000160: 4d5f 5a3e 78b3 333e 07f4 bebe a25f 053e
00000170: 8248 3ebe cb23 8cbe 3dab 683e 75a1 43bc
00000180: e4ba c23c 5bab ca3e 83e0 86be d1f6 073d
00000190: 271e 09be 0f30 1bbd 926e 4a3d 2396 203e
000001a0: bd6a 143e 0d59 acbe 4264 fcbd 070e 1fbe
000001b0: df45 cd3d 2f41 483e 5d0d 533e d3c2 903e
000001c0: 28ae 333d 46fc 563c 90e2 6dbe a554 be3d
000001d0: 2d6c 593d c858 1b3e 3385 8abe 8c37 28be
000001e0: d740 0cbd 31db 223e a1b7 19be 6fac 893e
000001f0: 38d4 52bd 8b1e 8b3e 7831 cb38 b9ad ab3e
00000200: 5b41 143e dd12 15bd 35c6 e43d 1be7 2dbe
00000210: 8bb5 183d 2a81 21be 9874 293e 9022 05bd
00000220: e7dc 2d3e 0c78 e1bd 7332 873e 3ed7 103e
00000230: 4704 2fbe 6246 803e a582 613d d6b4 143e
00000240: c982 6f3e f8c3 4abe 2e61 903d 86eb abbd
00000250: 9ea9 7b3d 4916 ee3d b78e e3bd 89e4 e8bc
00000260: 111e 34bd 97a2 b83b 87f3 a13d 706b 603c
00000270: 9306 9fbc 5afe f53c f8d7 ad3e 710d 0a3e
00000280: ec90 c73d 7f51 84bd 7ac7 0fbe c79a 68be
00000290: 9dcb 483e 3244 e93c 0a7c 573e a070 ca3e
000002a0: 0b40 82be 80f4 15be 24b9 6dbd 8b9d 9dbd
000002b0: 037d 233e 0d58 8a3d 9b1f d13d 0069 2635
000002c0: e021 893e dc18 40be 9f17 033e 3730 e3bc
000002d0: 7627 36be 9411 b53d ac3f c3bd 0835 9d3e
000002e0: 5a40 b23d 25fa 9b3e 2c7a e2bb 478e cfbc
000002f0: f90b 3abe e656 703c 35f2 86bd d6e0 0cbe
00000300: d441 703e d564 e2bd 1e02 013c 4f1c 32be
00000310: df28 2f3e 4dd9 2f3e 809c 8cbd aab7 7fbd
00000320: 164a c83d 54f5 183e 70b4 5e3b a24c b03e
00000330: cf59 30bc 8979 8d3e e78a 81bd b976 443e
00000340: 8eb8 c63e c00f 913c cb74 a8be 07c6 d6be
00000350: dc38 a0be 9857 b13e 186c c43e 3291 393e
00000360: 1da1 2a3e cb17 073e fd0c 903e 1e9d b63c
00000370: 4d8f 3dbc 96af 03be 2150 8c3e 3b94 3e3e
00000380: 60f4 29be 7630 363d d480 25be 6e04 17bd
00000390: e772 6fbd 3589 ca3c 9bdc 043e 2136 423d
000003a0: 5cee b83e ba21 153e b35d 56be f6a2 64bd
000003b0: 1fa8 6a3e 84d3 dfbd 2a5c b4bd cc3d 44be
000003c0: ff07 acbe e31a 8ebe dd5c 51be 6abf a83c
000003d0: 8f97 33bc f5b2 70be 107f f23d 49ae 2e3e
000003e0: a771 803d 33a6 b33a 01aa bebc 0f30 833c
000003f0: 7e5e 01be dc7e 2b3e bd3d 90be 67c4 10bd
-0.21125479 -0.1673559 0.095341034 -0.24284093 -0.105860904 -0.011853772 -0.24867178 -0.06405523
-0.2967351 0.011811073 0.12805073 -0.17240174 -0.19046359 -0.07191221 0.0017246042 0.12450941
-0.10966451 -0.20302929 0.29313093 0.037630107 0.14041863 0.2748599 0.26290774 0.21581684
-0.0019406761 -0.28197142 0.03549989 0.12925662 0.24088657 0.17627715 0.274627 0.21201201
-0.19915032 -0.03024182 0.07037893 0.30486906 -0.11015958 0.05784356 -0.040526666 -0.17849432
0.18220039 0.13423277 0.15855429 0.24723114 -0.052263208 -0.14592558 -0.06544414 -0.29823244
0.27988884 0.0323609 0.017833384 0.036222767 0.16170637 0.07898518 -0.25276068 0.06868072
-0.14775035 0.21514353 -0.113288835 0.39447248 -0.17957681 0.15050407 0.1669357 -0.055106364
-0.09929803 0.29530495 -0.11451749 -0.0892431 -0.25796053 0.13386299 0.22437514 0.2504923
0.11453405 -0.09671633 -0.1782597 0.21523722 -0.19136865 -0.1697141 0.10164333 -0.08508544
0.007941178 -0.04644058 -0.20973164 0.053857107 0.12989928 -0.2513746 0.010754003 0.33399144
0.21325417 0.1754893 -0.37295553 0.13024762 -0.18582347 -0.27371058 0.22721572 -0.01194035
0.023770757 0.3958386 -0.26343164 0.033194367 -0.13390408 -0.03788763 0.049421854 0.15682273
0.14493842 -0.3366169 -0.1232381 -0.15532695 0.100230925 0.19556116 0.20610566 0.2827364
0.04386726 0.01312167 -0.23230958 0.092934884 0.05308168 0.15170586 -0.27054748 -0.1642744
-0.034241524 0.15903927 -0.15011455 0.2688937 -0.05147192 0.2717174 9.6890086e-05 0.33530977
0.14478056 -0.036394943 0.111706175 -0.16982691 0.037282508 -0.15771928 0.16548383 -0.032503664
0.16978799 -0.11009225 0.26405677 0.14144608 -0.17091475 0.25053698 0.055056233 0.14522108
0.23389734 -0.19801319 0.070497856 -0.08394532 0.061441056 0.11625344 -0.11111205 -0.028429287
-0.043973986 0.0056346166 0.07907777 0.01369749 -0.019412315 0.03002851 0.33953834 0.1348169
0.097444385 -0.06460857 -0.14040938 -0.22715293 0.19608922 0.0284749 0.21043411 0.3953905
-0.25439486 -0.1464405 -0.058037892 -0.076960646 0.15965657 0.067550756 0.102111064 6.1992614e-07
0.26783657 -0.18759483 0.1280198 -0.027732952 -0.1778849 0.088412434 -0.09533629 0.30704522
0.0870368 0.30464283 -0.0069115367 -0.025336398 -0.1816863 0.014669156 -0.06589166 -0.13757643
0.23462611 -0.110543884 0.00787404 -0.17393611 0.17105435 0.17172737 -0.068657875 -0.062431015
0.09779756 0.14937335 0.003398206 0.34433466 -0.0107636 0.27631786 -0.06325322 0.19185914
0.3881268 0.017707705 -0.32901606 -0.41947958 -0.3129338 0.3463714 0.3836372 0.18121794
0.16663022 0.1319267 0.2813491 0.022291716 -0.01156981 -0.1285995 0.27404884 0.18611233
-0.16597128 0.04447981 -0.16162425 -0.03686946 -0.05845919 0.024723629 0.1297478 0.047414903
0.36119354 0.14563647 -0.20934181 -0.055819474 0.22915696 -0.10929015 -0.088066414 -0.19164199
-0.3359985 -0.27754888 -0.20445581 0.020599086 -0.010961427 -0.23505767 0.118406415 0.17058672
0.062716775 0.0013706147 -0.023274424 0.016014127 -0.12633702 0.16747612 -0.28172103 -0.035343554

layers.0.bias f4 [64]
00000000: f448 34be 4dfd 92be a48e 043e 43cd 883d
00000010: 53da ba3e b85c 8c3c 5a37 a03b d10b 35be
00000020: daed a23d d35c 6a3e 7f08 983e cb89 293e
00000030: 942d 9a3e 68d8 9c3e e393 85bc 936d 173d
00000040: 2748 c5bd 7040 883d 5ed9 233e b247 4a3e
00000050: 44bd c63d 6c61 463c 8bc8 6fbe dde7 143e
00000060: 8496 1abe ce42 5b3d e792 84be b094 37bd
00000070: 2ac9 943e 5f2a 993e 1d3c 60be 5d41 3a3e
00000080: 3549 cbbc a5ad 2b3e 6a22 883e 33e4 373d
00000090: 2a57 8e3e ca12 f4bd 999a fb3d d512 5cbe
000000a0: 7ac9 afbd bfcd 173c ff09 093d 78b3 6a3e
000000b0: 269e 803e 00f5 ab3d b258 63be 61ce 903d
000000c0: e13a 0dbe 82c2 b13d 0d38 f33d 2946 4b3d
000000d0: 920d f1bb 80d2 883e ebe7 903e 5fc3 5bbe
000000e0: 8eae 90be 8e7e 3abe 84fc 77b9 5c1b 843e
000000f0: 301b dfbd 1916 f03d ec4e 9cbd 2ae2 053e
-0.17605954 -0.28708878 0.12945038 0.066797756 0.36494693 0.017134055 0.004889411 -0.17680289
0.07955523 0.22886972 0.29693982 0.1655647 0.30112898 0.30633855 -0.01630587 0.036969732
-0.096329026 0.066529155 0.16000888 0.19753912 0.09704068 0.012108188 -0.23416345 0.14541574
-0.1509648 0.053530507 -0.25893328 -0.044819534 0.29059726 0.2991514 -0.21897931 0.18188997
-0.024815181 0.16765459 0.26588756 0.044895362 0.27800876 -0.11917646 0.122853465 -0.21491559
-0.085833505 0.009265362 0.0334568 0.22920024 0.25120658 0.083963394 -0.22201803 0.07070614
-0.13791992 0.086796775 0.11875925 0.049627457 -0.007356354 0.267231 0.2830194 -0.21461247
-0.28258175 -0.1821234 -0.00023649825 0.25802124 -0.108938575 0.11722965 -0.07632241 0.13074556

layers.2.weight f4 [64, 64]
00000000: f819 ddbc 2dac a2bb f017 e2bc 0de0 a53d
00000010: ad19 c63c b922 52bc 84d1 a13d e1e8 433d
00000020: 90ee c63c 2ea9 e03c 2f2b 10bd 4b16 093e
00000030: 778b aa3d 08b8 133e 9317 0bbd b184 0bbd
00000040: 8dd7 46bd ef12 803c 40b7 a93d ea98 7c3d
00000050: 0f92 6a3d 50d8 5bbb 3da8 adbd b8ae ad3d
00000060: 6147 9b3d 8b5a 8cbd 0682 07bc 6d6e 9b3d
00000070: 2a3a 2dbc 288b ab3c 5b05 4c3d aa0b 98bc
00000080: b057 033e 327d b93c 29b9 1e3e f4c2 b03d
00000090: f205 ce3d 9bba 393d bd92 9a3b d187 db3c
000000a0: 2290 d83b 9473 123d afa0 b93d ff89 a3bc
000000b0: 9b70 0abc 6674 e63d f737 2c3c de9c e6bc
000000c0: 0b06 a1bc 18ee 203d 5480 da3d 7be3 b83d
000000d0: 87f0 b03d 56c7 1d3e 16a0 b63d 9d1c a5bd
000000e0: bc6c fc3c ce0a 8dbc 39b2 edba a5c7 043e
000000f0: b75e d33c 9f6b df3d e143 c63c fcaa 09bd
00000100: 8753 0ebd 5d6c f4bc 0e5b 263c 8e10 553d
00000110: d746 ee3d b26c fd3d b0a0 d73d bd5b a13c
00000120: e259 ef3c 8c87 0d3e ddab a43c 2c3e 51bc
00000130: 600b 833d 5a8e 1f3e 5c11 c73d 3bcf 59bd
00000140: 5bdd 58bd eaa6 45bd b2f4 c73d 3217 f53c
00000150: 8e25 043d 5487 043e c164 883d 7bf9 b33d
00000160: 4f02 533d 96a9 103d fec0 afbc 90e5 093e
00000170: c3c6 013e 04b4 09bd 4d4f 21bd 3c56 0cbd
00000180: 902e f7ba 9385 ac3d 363d 8a3d 9db1 b63c
00000190: e2d5 0a3e 603f 97bd 35c1 2d3e a54d 52bb
000001a0: 9cdf 1d3d c8a1 e53d ee6a 0a3d 0054 9c3d
000001b0: 43a9 2e3d 6425 0bbc 9c72 c9bc 0bd8 843d
000001c0: 89b5 ec3d 0069 0d3e d399 62bd ce34 8ebb
000001d0: 82e7 963d f958 ba3d b932 0f3d 6ca4 a33d
000001e0: cfae 90bc 5504 2ebd bc40 393d 2e86 2a3d
000001f0: b427 543d 385b a63d c981 593d 9d2a e5bb
00000200: 6574 273d fae7 063d 9ade 743d e09f 7bbd
00000210: 09d1 a63d ac09 41bc a590 273d ab42 ce3d
00000220: 23fc 2f3d f898 843c f44a 443d 693c a2bd
00000230: 9092 22bd 1bbd 023d e2ed afbc ee9a 94bd
00000240: b64f fb3c ea53 853d f85b 01bd 9c3f 543d
00000250: a3da 0abd 57de 743c a2be 7a3d d8e3 ee3b
00000260: c7c0 e63d 43d7 4ebc 9609 ffbc 755b ef3c
00000270: 608e 32bc 4006 423d 20c6 833d 2cc5 b03d
00000280: 3637 503d 3444 82bd 75c5 823c 0f09 b83b
00000290: dd79 0b3d a156 933d 0b77 4a3d 6465 7cbd
000002a0: e110 6bbd a47b 92bd 539b b43b ea9a 263d
000002b0: 07d7 ce3d 9293 6bbc 8d92 4a3d 75ad 953d
000002c0: 1986 3a3d 2579 dcbc c2a4 4c3b e25d 92bd
000002d0: deb4 7d3c 57fe 283d 49ed de3c d966 fa3c
000002e0: 1fa0 8cbd 06dd 35bd 897d aa3d 68ab 8ebd
000002f0: 48f9 35bd a875 39bd 9273 493d 1e09 1e3c
00000300: 5a9e fe3c 24fb 903d e725 903d 1ad6 8dbd
00000310: ddd9 0e3d c21f 75bd 746e ed3d 4821 86bd
00000320: 0c26 84bc 9025 293d 624b df3c 9a28 9bbc
00000330: addc f3bc c710 8abc 5ba1 b3bc a88d 633d
00000340: a512 bf3c c9cd 44bc 4850 94bd 4fad 5d3d
00000350: 224e d33d 844b 90bc 751a 5ebd d130 6a3c
00000360: 979e 913d f771 153c 1fe2 8d3c 236f d2bc
00000370: 75a2 13bd 1ae1 ecbc 9171 d2bc 7cb6 67bc
00000380: b711 bf3d b7cb 7a3d e4f0 94bd 2ffd f4bc
00000390: 9dbb 933d 64f2 c7bd 2cc1 e13c 7b70 70bc
000003a0: bae0 ddbc 3050 0f3d 6078 cf3c dc9f 34bd
000003b0: 74bd 013d ed7b 543d 5e49 af3d 0f25 87bd
000003c0: 3d03 f1bc 0903 933c d548 c63c e9e4 a83c
000003d0: f4ed 64bd 2c91 29bd 624e 113d aeea 0ebc
000003e0: acb3 de3d fd54 323d 2ada b53d 5ff5 6cbb
000003f0: bff0 3d3c 0faf fc3b af50 9a3c 9c8e 073d
-0.026989922 -0.0049643726 -0.027599305 0.08099375 0.024182165 -0.012825661 0.0790129 0.047829513
0.024283677 0.027424421 -0.035197433 0.1338741 0.08327382 0.14425671 -0.03395803 -0.03406209
-0.04854541 0.015634028 0.08286905 0.061669268 0.0572682 -0.003354568 -0.084793545 0.084805906
0.07581974 -0.06853207 -0.008270746 0.075894214 -0.010572949 0.020940378 0.049809795 -0.01856025
0.12826419 0.022642706 0.1550032 0.08630934 0.10059728 0.045343976 0.0047171996 0.02679816
0.006608979 0.035754755 0.09063851 -0.019963263 -0.008449699 0.1125267 0.01051139 -0.028150972
-0.019656202 0.039289564 0.10669008 0.090277635 0.08639627 0.15408072 0.08917253 -0.08062098
0.030813567 -0.017217066 -0.001813478 0.12966783 0.025802 0.10909199 0.024202289 -0.03361033
-0.034747627 -0.029836828 0.010153545 0.05201774 0.116346054 0.123742476 0.105286956 0.019697065
0.029217664 0.13821238 0.020101482 -0.012771171 0.06398654 0.15581647 0.09720108 -0.053176146
-0.052945476 -0.048254885 0.09763469 0.029918287 0.032262377 0.12942249 0.06659842 0.08787819
0.051515874 0.03531798 -0.02145433 0.13466477 0.12673478 -0.033618942 -0.039382268 -0.034261927
-0.0018858481 0.08423915 0.06749956 0.02230149 0.13558152 -0.07385135 0.16968234 -0.0032089737
0.03854333 0.11212498 0.033793382 0.07633209 0.04264189 -0.008492801 -0.024590783 0.064865194
0.115580626 0.13809586 -0.05532248 -0.004339791 0.07368375 0.090990014 0.034960482 0.07990345
-0.01766148 -0.0424846 0.04522775 0.04163187 0.051795676 0.08122867 0.05310229 -0.0069936053
0.040882487 0.032936074 0.059782602 -0.061431766 0.08145339 -0.011782091 0.04090943 0.1007131
0.042965066 0.016186222 0.047923043 -0.079216786 -0.039690554 0.031918626 -0.021475736 -0.07256113
0.030677658 0.06510146 -0.03158185 0.051818475 -0.033899914 0.014945588 0.061216958 0.0072903447
0.11267238 -0.012624565 -0.0311325 0.029218415 -0.010898203 0.04736924 0.06434274 0.086313576
0.050833903 -0.06360665 0.015963295 0.0056163142 0.034051765 0.071942575 0.049429934 -0.06162013
-0.057389144 -0.07152489 0.00551168 0.04067508 0.10099607 -0.014378445 0.049456168 0.07308475
0.04553804 -0.026913235 0.0031226133 -0.07146813 0.015485017 0.041258182 0.027212756 0.03056662
-0.06866478 -0.044400238 0.08324725 -0.06966287 -0.044427186 -0.04527822 0.049182482 0.009645728
0.031081367 0.07079151 0.07038479 -0.06925602 0.03487574 -0.05984474 0.11593333 -0.06549317
-0.016131423 0.041295588 0.027257625 -0.018940259 -0.029768312 -0.016853703 -0.021927526 0.055555016
0.02332432 -0.012011954 -0.07241875 0.054120358 0.10317637 -0.017614134 -0.05422445 0.014293865
0.07110327 0.00912141 0.017319737 -0.02568776 -0.036043603 -0.02891593 -0.025688918 -0.014142629
0.09329551 0.061229434 -0.07272509 -0.029905884 0.07213519 -0.09763029 0.027557932 -0.014675255
-0.027084697 0.034988582 0.025325954 -0.044097766 0.031674817 0.051875997 0.085589156 -0.06598865
-0.02942049 0.017945783 0.02420465 0.020616965 -0.055890992 -0.041398212 0.035475142 -0.008722944
0.108741134 0.043538082 0.08879502 -0.0036156995 0.011593043 0.0077112983 0.018837301 0.033094987

layers.2.bias f4 [64]
00000000: c15b e93d e7f5 62bd 51aa 013d 2394 3bbd
00000010: 5e5f b33c ad61 d83d 8ec5 b6bd 5ab7 913c
00000020: ee73 23bd 569c ef3b e45f 67bd 8563 0a3e
00000030: 4353 943d 64f8 c03c 83ea c93c 7e27 d23b
00000040: 29dc 433d a3a5 d53d a2d6 ff3d c958 5f3b
00000050: ea54 b23c c049 aa3d 7667 a83d c4ed 91bc
00000060: 4c73 063d cd76 0bbd d1c9 8b3d 4d37 563d
00000070: e037 a4bd cbdd 8abd 8bd2 193b 459b d23c
00000080: 97d6 a9bc f3d4 aa3d 34f0 38bc 6307 b53c
00000090: a4ad d53d 67cf 0ebd 171b c9bd cfe2 5bba
000000a0: d02e 6b3c 2d14 40bd 9138 983d 3c2f 65bc
000000b0: 5836 093d c522 213d 0eb0 1ebd 5711 febc
000000c0: b71d 7f3d 301c 8bbc 7dbe eb3d dc5f 7a3d
000000d0: 3e31 0d3e 9807 a13d 367b e23d c22e 583c
000000e0: fe62 c63d b4fa 0cbd 51f8 ae3c 36cc d43d
000000f0: 6985 a7bd 377e a53d 79b6 06bd d2c6 7a3d
0.11394454 -0.055410292 0.031656567 -0.04579557 0.02189606 0.10565505 -0.08924399 0.017787624
-0.03990548 0.007312338 -0.056487933 0.13514526 0.072424434 0.023555942 0.024647957 0.0064133992
0.047817383 0.10431983 0.1249211 0.003408002 0.021769006 0.08314848 0.082228586 -0.01781357
0.0328248 -0.034048844 0.06825603 0.052298833 -0.0801847 -0.06780585 0.002347144 0.025708804
-0.020732207 0.08341398 -0.011287738 0.022098249 0.1043351 -0.034865763 -0.0981962 -0.0008387984
0.014354423 -0.04689424 0.07432664 -0.013988312 0.033499092 0.0393398 -0.038742118 -0.031014128
0.062284198 -0.016981214 0.11510942 0.061126575 0.13788316 0.078627765 0.11058657 0.013194742
0.0968685 -0.034418777 0.02135864 0.10390513 -0.08179743 0.08080714 -0.032888863 0.061224766

layers.4.weight f4 [81, 64]
00000000: 9b1f 0abc cdec b0bd c70b 7e3d efe9 80bd
00000010: bd4e 533d 5d05 9fbd dfac 2b3d 0e7d 2abc
00000020: 374e 44bd 20b9 9a3d 9382 393d 347e 3ebd
00000030: a3dd 803d 8c74 ea3b 1096 76bb d9d4 f9bc
00000040: ed56 39bc 1ac9 d6bb ba66 c5bc 401e b2bd
00000050: dbca 3bbd 9524 4dbd 492d eebd 8564 1dbd
00000060: a916 d4bd 6a4d 4f3d 93d6 aebd a1fe c7bd
00000070: 8739 8e3d 6893 4f3d b814 2dbd da35 1dbb
00000080: ebea 95bd 496d 6cbd 9b20 04bd f839 b8bd
00000090: 950a c2bc bf83 3abc 6170 6b3d 434b 8dbc
000000a0: a28d 233d c976 923b ad46 b4bc 43cf ddbd
000000b0: 4c03 93bd 07ab 3cbd 0a8f 643c 847a 1e3d
000000c0: 3380 b93d e3be 85bd ff58 8ebb 16f7 29bd
000000d0: 5fb2 53bd ff50 b2bd 8b7a d63c 2580 c2bd
000000e0: 43c8 893c 674e 363d 943d 503d 95f4 babd
000000f0: 2977 2e3d d64d 42bd a038 80bd a2cf 853d
00000100: 60b6 83bd 61ff 83bd 2b8a 813d 3161 40bd
00000110: 1dbf dcbd f9fc d6bd cba4 09bd 4dd0 edbd
00000120: cee4 023d ac55 f33b 842a 72bd e084 81bd
00000130: b091 7c3d 4eb5 cf3b 7789 65bc c39c 12bd
00000140: 03cc a73c 6e6e 473d e7bd 2d3d 6a4a ffbd
00000150: 8b06 d93c ebeb 08bc 253f f93c 6d6a 52bd
00000160: 3bf4 91bd a9cc e1bc 76a6 11bd 0736 5abd
00000170: b624 f6bb 012c 9abc 84d4 f43c c4c3 733c
00000180: 33c1 36bd 6cb0 67bd 3f66 633d e0e0 2cbd
00000190: 133e 0d3d aacb ad3c ee2a 8f3d 0753 833d
000001a0: 3f37 82bc 8a59 963d 0928 283d c626 23bc
000001b0: 0f07 0d3d 0abb 42bc f3bd 423d eb1f 8c3d
000001c0: cf15 7bbd ef6f c7bc b529 b0bc c34f 0f3d
000001d0: ed8c 17bd 736a d8bc 17d3 99bd 5f94 cbbc
000001e0: a7b7 653d e15a ec3a e8c7 bbbb 9781 04bd
000001f0: 8881 ecbc ba66 503d c5d0 11bd 9c19 6abd
00000200: c7c2 e6bd 91db bcbc c6f0 d93c a665 bc3c
00000210: ced0 43bd a0f0 0d3d 1456 ac3c 8a1d c2bb
00000220: 5d9f d2bb 044c 953d bb44 e93a 5030 32bc
00000230: 8cb4 033d 84a1 4bbc 2928 b5bb fd03 d23d
00000240: d725 4cbd 8337 e53a 360b b1bd 6f7c 64bd
00000250: 37fe d2bd 29a3 32bd 934e 49bd ee17 453c
00000260: 6534 29bc 865f 2f3c c91d 91bc 8e74 0f3d
00000270: 4959 d03d 7665 48bd 2f67 ef3c efa7 7f3d
00000280: 40fc d1bc da60 f53c 5c60 f4bd 1127 853c
00000290: ec6a 933d cfb7 23bd cd97 10bd b795 c1bd
000002a0: afd4 4c3d 4d6a 1aba cb18 f5bd f298 f5bc
000002b0: 0bc1 01bc 9265 82bd cd8c 51bc 6319 473d
000002c0: e39b da3c e13e b13d afe1 c5bd 2af3 4ab9
000002d0: 3bf6 96bd f755 a1bd 0710 233d 02aa 27bd
000002e0: 634c c1bc 8c5a 383d abc5 c3bb 068a f93c
000002f0: 967f 513b 9def 14bd 4618 c7bd b950 78bc
00000300: b3d6 67bd 231b 0a3d 9f86 b53d f6a4 05bd
00000310: 4b1c 37bd f55b 7cbd 0a12 59bd bb51 30bc
00000320: 8e6d d43d 30ea 9fba 9d90 293d 1180 07bd
00000330: 9cee 92bc c199 e53c 9ff0 ccbd 03d3 c93c
00000340: cc38 9eb9 e6a0 cf3c 7cc1 e4bc 400c 93bb
00000350: 9362 613d 5f4f f93c 0307 133c 2adc 4fbc
00000360: dc08 0dbd a5f3 03bd a7f8 d2bd 3e71 33bc
00000370: 3c9c 8dbd 502f 143c 19a9 9a3c f2b9 293d
00000380: 56b5 543d ca80 663d 5791 63bd 9c04 1b3c
00000390: 131b 583d a0a5 483c 1105 f63c 6e85 013c
000003a0: ac02 d1bc c852 05bd e853 e2bd 79cc 2e3d
000003b0: 5f3e aebc cf41 15bd 0250 853d b572 66bd
000003c0: 5f79 6f3d ff86 2f3d 7e79 59bd 8ba7 ca3b
000003d0: 0347 51bd c87d 5ebd 616d aabd 20f5 133d
000003e0: b826 adbd 1b14 10bc 7460 75bd 798d 22bd
000003f0: e715 a3bd 1e0b 8d3d 9bc2 ba3c 7f50 98ba
-0.008430387 -0.08638916 0.06202295 -0.06294619 0.051588763 -0.07764695 0.04191291 -0.010405792
-0.047926154 0.07554841 0.04529054 -0.046507075 0.06292274 0.0071550068 -0.0037626065 -0.030497001
-0.011312229 -0.006554735 -0.024096835 -0.08697176 -0.045847755 -0.050083715 -0.11629731 -0.03842594
-0.103558846 0.050610937 -0.085370205 -0.097653635 0.06944566 0.050677687 -0.042256087 -0.0023988397
-0.07320198 -0.05772141 -0.032257657 -0.08995432 -0.023686687 -0.01138395 0.05748022 -0.017247802
0.039929993 0.0044697267 -0.022006357 -0.10830548 -0.07178363 -0.046061542 0.013950119 0.03869106
0.09057655 -0.065305494 -0.0043441053 -0.041495405 -0.05168378 -0.08706855 0.02618148 -0.09497098
0.016819125 0.044508364 0.050839975 -0.091286816 0.04259411 -0.04743751 -0.062608 0.065337434
-0.0643127 -0.06445194 0.063251816 -0.04696769 -0.107786395 -0.104974695 -0.033604424 -0.11611996
0.031956486 0.0074259844 -0.059122577 -0.06324172 0.061662376 0.006338752 -0.014009825 -0.03579403
0.020483023 0.0486893 0.042417433 -0.12465365 0.026492378 -0.0083570285 0.030425617 -0.051371027
-0.071266614 -0.02756341 -0.03555914 -0.05327418 -0.0075117005 -0.01881981 0.029886492 0.014878217
-0.044617843 -0.056564733 0.05551743 -0.042206645 0.034483027 0.021215279 0.0699061 0.064123206
-0.015895484 0.07341297 0.041053806 -0.009957975 0.03443056 -0.011885414 0.04754443 0.06842025
-0.061300095 -0.024345366 -0.021504262 0.034988176 -0.03699963 -0.026417946 -0.07510965 -0.024851022
0.056083348 0.0018032455 -0.005730618 -0.03235015 -0.028870359 0.050879218 -0.03559949 -0.05715333
-0.112676196 -0.023053916 0.026604068 0.022997689 -0.047806554 0.034653306 0.021037139 -0.0059239315
-0.006427689 0.072898895 0.0017796973 -0.010875776 0.032154605 -0.012428645 -0.005528469 0.10254667
-0.049840774 0.0017487857 -0.086447164 -0.05578273 -0.10302394 -0.043612633 -0.0491472 0.012029631
-0.010327433 0.010703927 -0.017714398 0.035023265 0.1017328 -0.048924886 0.029224006 0.062416013
-0.025632977 0.029953409 -0.119324416 0.01625398 0.07198128 -0.039970215 -0.03530102 -0.09452384
0.05000752 -0.0005890474 -0.119676195 -0.029980157 -0.00791956 -0.06367029 -0.012789917 0.048608195
0.02668566 0.08654571 -0.09662186 -0.00019354807 -0.073711835 -0.078777246 0.039810207 -0.040933616
-0.023595994 0.045008227 -0.0059744916 0.030461323 0.0031966916 -0.036361326 -0.09721427 -0.0151559645
-0.056601238 0.033717286 0.088635676 -0.032628022 -0.044704717 -0.061611135 -0.05299572 -0.010761674
0.103724584 -0.0012200531 0.04139768 -0.033081118 -0.017936043 0.028027417 -0.10006832 0.024636751
-0.00030178425 0.025345277 -0.027924292 -0.0044875443 0.05502565 0.030433355 0.00897384 -0.012686769
-0.034432277 -0.03221478 -0.10301333 -0.010952292 -0.06914565 0.009044483 0.01887946 0.041437097
0.051930748 0.056275167 -0.05555853 0.009461548 0.052760195 0.012246519 0.030031713 0.007905347
-0.02551397 -0.03254965 -0.1105116 0.04267547 -0.021269975 -0.036439713 0.06509401 -0.056261737
0.058465358 0.04285335 -0.05309438 0.0061845235 -0.051093113 -0.054319173 -0.083216436 0.03612244
-0.08454651 -0.008793856 -0.059906438 -0.0396857 -0.07963162 0.06886886 0.022797873 -0.0011620669

layers.4.bias f4 [81]
00000000: a06b 893d a4a1 e3bd cc8b eabd c0e2 c23c
00000010: a785 dfbc e97a 90bb d428 fabd 80d3 d2bd
00000020: b44a 783d e881 92bc 3e52 7cbd 4438 653c
00000030: dea9 823d 3ffe b5bd 92e4 38bd e681 073d
00000040: b6eb 393c 2ec6 fabd efd0 3bbd fc0e 74bd
00000050: 7e3c a0bd 17c3 8e3c 4b6c 05be 5a81 b6bc
00000060: 23c7 803c 47e9 633d 243e b6bd 4c83 0e3d
00000070: c9f8 2cbd 7d74 99bd 6879 62bd f1cf 9d3d
00000080: ba21 653d 4e00 04bd d16c 57bd a9e6 d2bc
00000090: 3610 b23c 073f 6d3c e98a 27bc 521f 23bd
000000a0: 9a36 e9ba 93a3 f0bc 9563 d93a d9f3 d93c
000000b0: ef08 34bd c3b8 48bd 7b82 0b3b 8122 ffbd
000000c0: f1f4 9e3c c4eb 4e3d 1ef6 babd f38e bebc
000000d0: 09d4 4b3d 102f cebd 5e72 ffbd d459 a1bd
000000e0: 8214 afbd 05ce c63c f9a1 363d a7a1 91bd
000000f0: 7425 5c3b 678c 94bc 77f8 66bd 1db3 c7bc
00000100: 8461 80bd ca63 8b3d 4e83 543d 6bf1 53bd
00000110: 0811 573c 0154 c9bc 8f31 383c e0f5 d4bd
00000120: d664 eabc 76ed 45bd 432b 45bd 63bb b7bc
00000130: 24d1 843d 95fc 013c 0bdf 8bbd 09a5 6dbd
00000140: ba9e 78bd
0.06709981 -0.11114815 -0.114524454 0.023789763 -0.02728541 -0.0044091833 -0.122148186 -0.10294247
0.060618117 -0.01788421 -0.06160187 0.013990466 0.06380056 -0.08886384 -0.045139857 0.033082865
0.011347702 -0.12244831 -0.04585355 -0.059584603 -0.07824038 0.01742701 -0.13029592 -0.022278477
0.015719956 0.055642392 -0.08898571 0.034793183 -0.042229448 -0.074929215 -0.055291563 0.07705677
0.055940367 -0.032226853 -0.05259401 -0.025744753 0.021736246 0.014480359 -0.01022599 -0.03982479
-0.0017792762 -0.029374873 0.0016585464 0.026605533 -0.043953832 -0.049004328 0.002128749 -0.12457753
0.019403907 0.050517812 -0.091289744 -0.023261523 0.04976276 -0.1006757 -0.12472986 -0.078784615
-0.085488334 0.02426816 0.044588063 -0.07110911 0.003359166 -0.018133355 -0.0563893 -0.0243774
-0.062686 0.06806143 0.051883034 -0.051743906 0.013126619 -0.024576189 0.011242284 -0.103984594
-0.028612535 -0.048322164 -0.04813696 -0.02242822 0.06485203 0.007933755 -0.068296514 -0.058018718
-0.06069825
