src/shkrl_ik/models/dqn_agent_local.pth (torch, 42741 bytes, 6 tensors)

layers.0.weight f4 [64, 6]
00000000: 91ff 55be 4e33 de3d 7c0c 38be e811 2fbe
00000010: d230 0f3c eee6 b13d 368e a4be 35e7 a0be
00000020: cec2 2bbe e71d a2be a772 69bd 2df6 83be
00000030: 9d27 a0be d73f e43d 0218 1cbd 61a8 233d
00000040: e866 e33d 40a6 51be 9f05 dc3e 071f ce3e
00000050: d79c fe3b 3934 b73e 92e6 473e 601c 683e
00000060: 2fb8 183f 39f8 ddbd 53eb 153f 77fe 373c
00000070: faa9 cb3e d2b2 79bd ffd0 f33e 1907 3bbd
00000080: 78fe 093e a5bc 033f 312c 44be 8467 be3e
00000090: 06f5 893e 88db 963e 4b12 ce3e 17b3 8c3e
000000a0: e9a1 6b3e dc96 38bd 8e84 2dbe d591 cb3e
000000b0: 7cbc 323e 284f 623e 7c98 103d 0d5b 6dbe
000000c0: ad3c e53e 8842 14be ce17 6e3e e6ef 683e
000000d0: a339 ab3d a44b e13e 3728 9abe 17c8 5dbc
000000e0: b35f bebd b090 723e ee0f a83b 94fa 0b3f
000000f0: 80ed 40be 661e f03d 150b cc3e 1142 c13d
00000100: fc26 85be 3507 903e e574 d83e 6835 a13e
00000110: dba1 a13c 66cc 2d3f 9fef ae3e 4be0 df3e
00000120: 07d4 8fbd 1eb7 c0be b6f9 bfbd 9061 5d3e
00000130: 73d7 d9bd 1c3c 64be 30a0 133f 18fc 953e
00000140: 40fb 033f 88d7 a33e 5a27 a3ba 1936 7c3e
00000150: 1fb5 dc3d 76da 3abe ca12 cf3e 43e4 033f
00000160: 61ac c0bd b712 063f 51e8 a8be e94f ca3d
00000170: 15b8 963d 6501 1abe 6aa0 5b3d 1209 16be
00000180: f160 d83d 4184 c03e 9c99 b0be c3c4 b9be
00000190: 24ca 973e aa6f 8dbe 91b7 cfbd d011 043e
000001a0: 825a febd ea5f b1be 8420 b3bd d330 0d3d
000001b0: c3f3 72bc 768e a93e c730 f73e e7ae 403e
000001c0: 3644 c83e d219 df3d ad63 42bd 1151 1bbe
000001d0: e5f6 033e 7e2f f83e d81b 81be 9061 3d3e
000001e0: 7c6e fb3e 011f 6ebe b0c5 143e 1acc 273e
000001f0: 1556 e83e c283 b93e 248f ca3e 6a35 8f3e
00000200: d1d8 9d3c ee9f 1f3f 46bf 373e c8f6 803e
00000210: 7c0d 4dbe c306 723e 556b 5f3d a301 5a3d
00000220: 42fb 3d3e a4d1 623e 86f1 d93e f9cd 9e3e
00000230: 0efb 813e 2ff0 083f b74c 043d 35af c33d
00000240: 7876 ed3d 4d59 a5be d0d4 f1bc 7ed0 d03d
00000250: 77ad 9a3e 32bc acbe 33b9 a13e e4fd a93e
00000260: b0b2 b53d 71f1 0d3e 537c 843e 57c4 5bbe
00000270: 09c6 bfbe a22c 3b3e b29c bd3e ce14 063e
00000280: 13b5 bb3e 3eb9 553e 366c 453e 5c08 3fbe
00000290: 4f75 733e b7d7 1b3f e3d1 d73e e307 313f
000002a0: 5ecb 26be b999 46bc a072 133e 52be 743d
000002b0: 74a8 f13e fbf2 b93e f2ab 2e3e 39e8 f9bc
000002c0: 153c 803e f94b a0bd 2cb0 75be afa5 3dbe
000002d0: 3063 94bd 55d4 9fbe bb19 853e 2afd 013f
000002e0: e583 b2bd 848f fb3e 71d8 52be f24f e9bd
000002f0: 399f 3f3e 1c25 0cbe c9c4 9bbe 5fc0 93bd
00000300: 5f3e bf3e 1029 593e 55dd c13e 401f e23d
00000310: af6b 723e 4c9e 8f3e f59a 6e3e 6aee b9bd
00000320: 5c34 13bc 5f36 ef3e 60ed 7b3e 7251 153f
00000330: 22a9 d33e cef9 893e f67b 423d 9054 d63e
00000340: 2b4d b43e 4468 083f 147c 42be 891a 07bf
00000350: f0a7 21be 9c76 003f 1967 8c3e 63f5 da3e
00000360: 76a4 fabd ffa1 663e 6e4d df3e 84c4 a8bd
00000370: 6043 803d 9cb3 403e 08a4 703e 85c1 af3e
00000380: 4dae 3e3e f915 b53d 6a2e abbe 801e 05be
00000390: 8e1e e23e 739b 4dbe 6837 aebd 3e83 90bc
000003a0: 3d58 d23e 3882 153f 601b 81bd 85f0 85bd
000003b0: 7464 133d 3a1b ad3d d55a 933d d72f 5b3d
000003c0: 4097 b4be 3285 5abe 3c63 c7be 405b 1ebe
000003d0: a4be 91be da94 bbbe 77ab a53e defe 913e
000003e0: a872 de3e b577 be3e 1b54 e03e 7cda 683e
000003f0: 7499 8bbe cf91 013e ffc0 f2bd 5db4 ff3e
-0.20898272 0.10849629 -0.17973512 -0.17096674 0.008739667 0.086866245 -0.32139748 -0.31426397
-0.16773531 -0.3166344 -0.056994107 -0.25773755 -0.31280223 0.11144989 -0.038108833 0.0399555
0.11103612 -0.20473576 0.4297304 0.40258047 0.0077701616 0.3578203 0.1952155 0.22667074
0.5965604 -0.1083836 0.585622 0.011230103 0.3977812 -0.060961552 0.4762039 -0.045661066
0.13475978 0.51459724 -0.19157483 0.3718835 0.2694475 0.29464364 0.4024833 0.27480385
0.23010983 -0.045065746 -0.16945097 0.397597 0.17454714 0.22100508 0.03530167 -0.23179264
0.44772854 -0.14478505 0.23251268 0.22747764 0.08360603 0.44003022 -0.30108806 -0.013536475
-0.09295597 0.23688006 0.005128852 0.54679227 -0.18840599 0.11724548 0.39852205 0.09436429
-0.26006305 0.281305 0.42276683 0.31486058 0.019730499 0.6789001 0.3416719 0.4372581
-0.07022863 -0.37639707 -0.093738005 0.21619248 -0.10636797 -0.22288555 0.576663 0.29293895
0.5155525 0.32000375 -0.0012447641 0.24630012 0.107767336 -0.18247399 0.40444022 0.51520175
-0.09407879 0.52372307 -0.32989743 0.09878523 0.073593296 -0.15039594 0.05361978 -0.14651898
0.10565365 0.37600902 -0.34492195 -0.3628293 0.2964641 -0.27624255 -0.101424344 0.1289742
-0.12419607 -0.3464349 -0.08746436 0.03447039 -0.014828625 0.33116502 0.48279402 0.1881672
0.3911454 0.10893597 -0.04745834 -0.15167643 0.12887152 0.48473734 -0.25216556 0.18494248
0.4910773 -0.23254015 0.14528537 0.16386452 0.45378175 0.36233336 0.39562333 0.2797044
0.019268425 0.6235341 0.17944059 0.2518828 -0.20024675 0.23635392 0.05454572 0.053224217
0.18552878 0.22150284 0.4256708 0.3101652 0.25386852 0.5349149 0.032299723 0.095549025
0.11594862 -0.32294694 -0.029520422 0.10196017 0.30210468 -0.33737332 0.31586608 0.33201516
0.088719726 0.13861634 0.25876102 -0.21461616 -0.37455776 0.18278745 0.37033612 0.13093874
0.36661586 0.20871446 0.1927956 -0.18655533 0.23775218 0.6087603 0.42152318 0.6915266
-0.16288516 -0.012121611 0.14399195 0.059751816 0.47198832 0.36318192 0.1705778 -0.03050624
0.2504584 -0.07826991 -0.23992985 -0.18520235 -0.07245481 -0.31216684 0.25996193 0.5077692
-0.08716563 0.4913293 -0.20590378 -0.113922015 0.18713082 -0.13686031 -0.30423573 -0.07214426
0.37352273 0.2120707 0.37864175 0.11041117 0.2367389 0.28050458 0.23301299 -0.09078677
-0.008984651 0.4672117 0.2460227 0.583274 0.41339976 0.26948398 0.0474815 0.4186139
0.35215124 0.53284097 -0.18992645 -0.52774864 -0.1578672 0.50180984 0.27422407 0.4276534
-0.122384 0.22522734 0.43613762 -0.082406074 0.06262851 0.18818516 0.23500073 0.3432733
0.18621178 0.088420816 -0.3343385 -0.12999916 0.44163936 -0.2007883 -0.08506662 -0.017640706
0.41082945 0.58401823 -0.063040495 -0.06540016 0.03598447 0.08452459 0.07195059 0.05351242
-0.35271645 -0.21339872 -0.38942897 -0.15464497 -0.2846576 -0.36637002 0.3235738 0.2851476
0.4344685 0.37200704 0.43814167 0.22739595 -0.27265513 0.12653278 -0.11853217 0.49942294

layers.0.bias f4 [64]
00000000: f5f8 56be a51a 62be caea 383d 8c7e f93e
00000010: 00dd 213f b64f b93e ebd6 d23e 4270 a3be
00000020: 3248 a93e c7cd 4c3d 009d 1e3f 2097 db3c
00000030: dab4 d03e 8e9c fc3e 840f 45bd f6c8 49be
00000040: b761 27be baf8 1bbc 1d96 1dbd 4e56 9cbc
00000050: 6bf9 453e a215 073f 8e7b c8be 05a8 e33e
00000060: 7593 96be 7a42 c6be a665 a1be ec32 123f
00000070: 0527 983e 37df a63e b529 7a3d dc68 903e
00000080: 14e9 fd3d 8008 2e3e 9722 f83e 3943 ccbd
00000090: 1753 0d3f 20d3 c5be d5ad c03e 08ce 86be
000000a0: a0b4 9b3d e45e b63e d120 073f c05f dfbb
000000b0: deed eb3e 4f3f 7fbe b053 9cbe c340 af3e
000000c0: 664f b83e 5ac9 8bbd b66f cb3e 9014 c1bd
000000d0: 3527 413c 94ef 963e 278e 1e3f 4352 a5be
000000e0: 6cc9 d6bd d90b 81be 5ed6 8cbe c8c4 093f
000000f0: 6568 cc3e cd82 ca3e a021 0b3f 7925 71bc
-0.20993407 -0.22080477 0.045145787 0.4872936 0.63227844 0.36193627 0.41179594 -0.31921583
0.33062893 0.050000932 0.61958313 0.02680546 0.4076298 0.49338192 -0.0481105 -0.19705567
-0.16345869 -0.00951975 -0.038473237 -0.019084122 0.19333427 0.52767384 -0.39156765 0.44464126
-0.29409376 -0.38722593 -0.31522864 0.5710895 0.2971727 0.32592174 0.06107493 0.28205
0.12397972 0.1699543 0.4846389 -0.09973759 0.5520491 -0.38637638 0.37632623 -0.26329064
0.07602811 0.3561927 0.5278445 -0.006816834 0.46079916 -0.24926494 -0.30532598 0.34229097
0.35998076 -0.06825514 0.39733666 -0.0942775 0.011789133 0.2947966 0.6193566 -0.32289323
-0.10487637 -0.25204352 -0.275073 0.5381589 0.39923397 0.39552918 0.5434818 -0.014718407

layers.2.weight f4 [64, 64]
00000000: 208f 8fbb 845d 1c3d 1c96 923d 6327 6a3e
00000010: 4b8c 083e a410 263e 2b99 643e ee1c ec3d
00000020: 4305 813e e203 103e f1e3 3e3e 1383 aa3e
00000030: 2d82 4f3e 05d9 bd3e 39fb 483e 40e6 16bb
00000040: ac31 753d c05b c73d 3ec4 3b3e e137 013e
00000050: 7fda 5c3e 01ff 873e 54fb 8fbd 556e 783e
00000060: 4028 d43b 7650 c1bd 25b6 843c f394 953e
00000070: 1201 413e 53ae a83e 4717 9e3e a088 783d
00000080: e2ea a43e e1a1 8b3e 33c6 a53e a3a8 3a3e
00000090: c261 413e 7aec fc3d 4acf 983e 9497 493d
000000a0: 3c0d 36bd beca 073e 95b1 713e 4004 4f3d
000000b0: ea0b 173e 87e3 783e 306b 24bd cf9e 2d3e
000000c0: 1ef7 0f3e 805c 873e 2f61 853e 3068 153d
000000d0: f6a5 163e b30a b13e 44a2 673e 5858 cbbc
000000e0: 950e 1e3e 4891 e3bd d89b dabc 3e61 813e
000000f0: 6045 843e d1cd 5b3e cb1d 603e b823 bd3c
00000100: fccf 093d 10ed a7bd 56e0 e8bd 58f2 923e
00000110: 3328 a63e 7b86 843e ec87 c83e 582a 603d
00000120: c539 343e f266 8d3e 16a4 543e fadb 673e
00000130: 2051 253e 0407 a13e 11f4 793e c097 16bc
00000140: 52ce a2bd 0ccd abbd 41b1 823e 9f63 033e
00000150: b4e0 503e a1f1 7a3e 8ec3 d73d 7209 893e
00000160: 0e20 bb3d 78d1 623d daf2 4f3d f8f8 a53e
00000170: fe9d 8b3e 7723 a33d 5ea9 1a3e 16de 123d
00000180: f26c 8a3e 37ea 683e 0cb4 be3e d6ea e63d
00000190: f58f ad3e 72e6 a4bd 5b03 bb3e 38cd b43d
000001a0: 7802 a6bd fb68 7f3e 581e a53e 247d 243d
000001b0: 9d6e 913e ab36 6e3e cc83 76bd 256f a93e
000001c0: dfe5 823e 27c0 b43e 973b 093e 488c 80bc
000001d0: ca42 1f3e 088e 3e3e d07e c13e 38ee 983c
000001e0: 7eaf 1b3e 3e7d e6bd 60e9 f83c 38d3 9a3e
000001f0: b280 c73e 6735 993e a429 b43e 869d debd
00000200: 7890 333d 20d3 a1bd da16 d23d c960 4b3d
00000210: f967 e53d 8361 d53d a4c9 383e 3297 de3d
00000220: 3742 613e 6b41 c93d 2769 173e b336 9a3d
00000230: b853 723d 2835 4f3e b0bf fe3d 605c 86bb
00000240: 86bf e73d 5098 79bc cddb 21bd 9646 073e
00000250: e83b 1e3d 6b54 5d3e be69 9f3d f5fa 753d
00000260: 7270 cf3d 0603 b9bd 1b30 4dbc a5b1 843d
00000270: cda5 1d3e 6016 1a3d 59c9 bb3d 87e6 663e
00000280: ace8 3a3e 9d94 ce3c f002 4a3c 1e46 5c3c
00000290: ecef a03d 806b abbb 59e7 e83d b443 9bbd
000002a0: cc1e d1bd 814a 7e3d a4d9 fc3d 0862 8dbd
000002b0: 8f7b 283e b7d9 063e 2870 1d3d ea92 9c3d
000002c0: 5a35 e23d d39f a73c b6f0 873c d0d1 093c
000002d0: 377e f13d 22a8 ce3d 15f8 0a3e e034 0ebd
000002e0: 4103 293a 188c 78bd dcdd db3d 07b5 213d
000002f0: 2ddf 093e c43c 443d b6c3 1c3e d00d b9bc
00000300: c8c8 c2bc 5cb6 a83d c036 e1bb ceb8 38bd
00000310: d531 3a3e 3230 cb3d 1411 3b3e b0f7 48bd
00000320: 5cd0 023d 2b2c 873d 5dc9 3d3e 2fed 843d
00000330: 16cb 043e 63a2 f83b adf2 283e 00b1 9d3b
00000340: a66c ffbd a20f cb3d b9bd bdbd b774 663e
00000350: 23cf 403e ae3a 31bb 400f 53bc 8fa9 c23d
00000360: 7c24 f53d d206 db3d 3951 a5bd bb24 283e
00000370: be4f 7fbb 9b91 103e a0db 233e 62ec ad3d
00000380: 4144 443e 7659 dc3d b7c4 c1bb ef10 823d
00000390: e044 b13d f026 8cbd f6e7 013e aee9 fd3d
000003a0: b84c b4bd 2068 163c b226 4c3d d062 17bd
000003b0: f03c a73d 3229 0e3e cce1 e43d 0fa6 733d
000003c0: 7534 c8bc b5e2 37bc 59c5 1c3e e22d 8fbd
000003d0: 8a60 f43d 4eae d73d 8f97 2abd 48ed a53d
000003e0: 7d46 473e 5cdb 98bd be4a bc3d df4e 213d
000003f0: 5828 423e f315 463e 1cf2 0e3e 1416 14bd
-0.0043810755 0.03817512 0.07157537 0.22866587 0.13334768 0.16217285 0.22324054 0.115289554
0.25199327 0.14063981 0.1864164 0.33303127 0.20264502 0.37079635 0.19627084 -0.0023025423
0.059861824 0.09734297 0.18336579 0.12618972 0.21567725 0.2656174 -0.07030359 0.24260838
0.0064745247 -0.09439175 0.016200135 0.29215202 0.18848065 0.329455 0.30877134 0.06067717
0.3221045 0.2727194 0.32377777 0.18228392 0.18884948 0.12349792 0.2984565 0.04921682
-0.044446215 0.13260934 0.23602898 0.050541162 0.14750639 0.24305545 -0.040141284 0.16955112
0.14059111 0.2643776 0.26050708 0.036476314 0.14711747 0.34578475 0.22620493 -0.024822399
0.1543525 -0.111116946 -0.02668564 0.25269502 0.2583418 0.21465231 0.21886365 0.023088321
0.033645615 -0.08199513 -0.11370914 0.2870052 0.32452545 0.2588385 0.391662 0.054727882
0.17600162 0.27617604 0.20765719 0.22642508 0.16144228 0.31450665 0.2440951 -0.009191453
-0.07949509 -0.08388719 0.2552586 0.12830971 0.20398217 0.24506237 0.10535346 0.2676502
0.09136973 0.055375546 0.05076871 0.3241651 0.27268976 0.07965749 0.15103671 0.03585633
0.27036244 0.22745596 0.3724674 0.1127526 0.33898893 -0.080517665 0.36525998 0.08828205
-0.081059396 0.2494239 0.32249713 0.040158406 0.28404704 0.23263042 -0.060184285 0.3309261
0.25566003 0.3530285 0.13401638 -0.015691891 0.15552822 0.18608868 0.37792063 0.018668279
0.15203664 -0.11254357 0.03038472 0.30239272 0.38965374 0.29923555 0.3518802 -0.10869889
0.043838948 -0.07901597 0.10258265 0.04965285 0.11201472 0.104189895 0.1804567 0.10868682
0.21997915 0.098269306 0.14786206 0.07529964 0.05916187 0.20235121 0.12438905 -0.0041003674
0.11315827 -0.015234068 -0.03951626 0.1321052 0.03863135 0.21614234 0.077838406 0.060053784
0.10128869 -0.0903378 -0.012523676 0.064791955 0.15395279 0.037618995 0.091692634 0.22548877
0.1825282 0.025217349 0.012329802 0.013444452 0.078582615 -0.005231321 0.11372251 -0.07581273
-0.10210952 0.06208277 0.12346199 -0.069034636 0.16453384 0.13168989 0.03843704 0.07645209
0.11045332 0.020461952 0.016594272 0.00841184 0.11791652 0.100906625 0.13571198 -0.034718394
0.0006447323 -0.06068048 0.10735676 0.03947928 0.13464041 0.047909513 0.15309033 -0.022589594
-0.02377738 0.08237907 -0.006872982 -0.04509812 0.18183072 0.09921302 0.18268234 -0.04906434
0.03193699 0.06600221 0.18533845 0.06490552 0.12968096 0.0075877174 0.16498823 0.00481236
-0.12471895 0.09915091 -0.09264702 0.2250546 0.18829016 -0.0027043032 -0.012882054 0.09504997
0.119698495 0.1069466 -0.080721326 0.16420262 -0.0038957442 0.14118044 0.16001749 0.08492352
0.19166662 0.10759251 -0.005913343 0.06350886 0.08655715 -0.06843364 0.12686142 0.123980865
-0.088036954 0.009180099 0.04984159 -0.03695947 0.0816592 0.13882902 0.1117588 0.059484538
-0.024439076 -0.011223485 0.15309657 -0.06991173 0.11932476 0.10531293 -0.041648444 0.081018984
0.19460483 -0.074637145 0.091939434 0.039381858 0.18960702 0.1934431 0.13959545 -0.036153868

layers.2.bias f4 [64]
00000000: 5ddf a13e 85fa 163e 95c1 30bc afa4 af3d
00000010: cb33 b43d a9b8 9c3e f6d8 b8bd ebe4 333e
00000020: d052 893d 3f0f 90bd 3c99 4bbd 207b 923e
00000030: 0095 543b 8079 96ba 1aac a53e 7ed3 00be
00000040: 876d 0f3e c8bf 833e f2e0 693e 05ea ec3d
00000050: 0f10 8f3e 0f10 e13c 83cc a53e 416f fb3d
00000060: 7940 a43e ee7f 41bd f8b3 853e 809c 5a3b
00000070: 2e71 e3bd 4ab2 853d 54a2 02bd c5fe 153e
00000080: 7557 513d 24aa 883e 9d67 173e d96e 863e
00000090: a4af 8a3e a615 b4bd 8886 f4bd 46e4 e13d
000000a0: cc06 f33d 975c e0bc 6044 8f3e fa71 0d3e
000000b0: e41e 703e dd82 a33e 1863 42bd cabc a03d
000000c0: 607d 5b3c 880b d93c 401a 853e d906 3a3e
000000d0: 1118 aa3e 45f4 8f3e 4175 903e 465b 1a3e
000000e0: 50f9 493e 8c6f 45bd d051 723d 9cdc 8f3e
000000f0: dca1 9dbd 8bd4 a03c e788 003e 8cde 643e
0.31615725 0.14744003 -0.010788341 0.08576333 0.08798941 0.30609635 -0.09025757 0.17567794
0.06705248 -0.07034158 -0.049706683 0.28609562 0.0032437444 -0.0011480302 0.32357866 -0.12580678
0.14006625 0.25732255 0.22839716 0.11568073 0.2794194 0.027473478 0.32382593 0.122770794
0.3208044 -0.047241144 0.26113868 0.0033357441 -0.11105572 0.065281466 -0.03189309 0.14647968
0.051108796 0.26692307 0.14785619 0.26256445 0.27087128 -0.087931916 -0.11939722 0.11029868
0.11866531 -0.0273879 0.27981853 0.1381301 0.23449284 0.31935778 -0.047457784 0.07848509
0.013396591 0.026494756 0.2599659 0.18166675 0.33221486 0.2811605 0.28214458 0.1507388
0.19724011 -0.048202083 0.059160054 0.28098 -0.07696888 0.019632598 0.12552224 0.2235052

layers.4.weight f4 [81, 64]
00000000: 23e3 38be fe3a 84be a2e4 f0bc 2ba7 5ebd
00000010: 52df 41bd 0a7e ccbd ecb1 043d a3e1 83be
00000020: d649 ccbd 6436 193d b0d8 28bd 2f81 02be
00000030: 8064 2cbc 5c15 d23d a5b4 20be dc4c 2bbd
00000040: 4666 34be 05a6 38be c0ff c9bd 704d 7dbe
00000050: c2b7 a5bd b01f 123c 8e28 63be b27c 8bbd
00000060: 49ab 01be 4c66 633d 16ae a6bd e6de ccbd
00000070: 2617 cc3d 51e7 93bb 70ea 693c 295d 7dbc
00000080: 50bc ccbc 2db6 cdbd 8e15 30be f0ae 26be
00000090: 4948 e1bd 589e 583d b0eb adbc b40a 663d
000000a0: 21ce 963c 8083 303d 10ca 29bd 2944 47be
000000b0: 2b8e 33be f911 0cbe e610 92bd b601 e43d
000000c0: 34dd fc3d 68ce 923c 4802 4cbe 9406 82bd
000000d0: b186 83be 945c 42be c442 04bd 8884 90be
000000e0: e44f c2bd 06a9 ad3d 9ce0 b13d 808f 73be
000000f0: 2867 f9bc 327c 823d dfef 14bc 74b0 e2bc
00000100: c616 acbd 84b9 71bc 190e 983c ab13 0ebe
00000110: 4dc5 0ebe 254b 48be b00d b23d 5ed5 1fbe
00000120: f048 7abc c1ad 943d 8478 97bd cd5c 43be
00000130: 68f1 e63d 1808 9dbc df82 f3bd 20de 3ebc
00000140: 2c69 23be a37b 2c3d 4077 97bc 7bbc 3dbe
00000150: 4fd6 c63c 0cab e93d 7c6e dbbd 9b93 e0bd
00000160: 8272 14be 08db d73d dad8 113d 94f8 93bd
00000170: 7c38 4b3d f78a 1abd ccab b33d 611f 0bbe
00000180: aee0 cfbd c89b 35be b404 8cbd 09d9 f4bd
00000190: d183 06be 70da c33c 903b a03c 3048 183c
000001a0: 2941 6f3d a063 8d3b 55db 4a3b 90c3 edbd
000001b0: e6a4 273d 4d40 82bd d8a8 1d3d a0d4 fabb
000001c0: 0025 76bc 807d f9bd 2a0e 13be ad50 6ebd
000001d0: 1ec4 09be 4e9f 47be 7f92 5abe 7f31 0cbe
000001e0: d7b6 79bd 3cfe f33d 662e e6bd 1c30 3abe
000001f0: 4ca4 2abd c8f6 9c3d 22a3 3fbe 1552 0fbe
00000200: 00e2 60be 44ed bdbd 08f9 cb3c 451d d1bd
00000210: 239c dfbd cca4 50bd 10b9 f33d 38c3 0fbd
00000220: d9aa 8dbd c83e 993c 0682 813d 1587 abbd
00000230: 704d 04bc 84de 113d 808b 62bd ec0d 9d3d
00000240: 636d f4bd a55f 97bc de16 66be 3d22 13be
00000250: f48c 00be e1ec ab3d fe40 54be 1794 a63d
00000260: 0bcf 4abe 022f aabd 8d96 49bc 2cbc 54bd
00000270: f40f af3d 745f 45bd 40a9 31bd 0b83 313c
00000280: e6ef e3bd 44b3 70bd beab 1abe 1aaa d5bd
00000290: da75 11bd 688c 823c 4c73 94bd 46ad c8bd
000002a0: cac6 bfbd b552 643d eca3 39be 2949 a4bb
000002b0: 38c5 bb3c 51da efbd 66bc de3d 2c2c 2abc
000002c0: 9424 963d e847 153d 9dd1 4dbe 4dfc 29bd
000002d0: fa34 13be c751 4ebe 66bf ae3c a6b7 2cbe
000002e0: d85b 40bd 2289 e53d 7828 8d3c 9f9e a3bd
000002f0: 1008 c43d 98f2 f0bc 72d1 c5bd 108f debd
00000300: 794b 32be c7bd a7bd 0286 2c3d 880d 30bd
00000310: cc77 a9bc d52d fbbc 581e 62bd f4a6 b2bd
00000320: 5073 bb3d cba4 8ebd c807 dfbc bc2d 7cbe
00000330: 602a df3b d077 fdbc 1684 7cbe 3202 d13d
00000340: 66d3 3dbe f523 5fbd d75f 6ebd e09f 05be
00000350: 45a8 e5bd 5752 1abd 4630 62be 0930 c6bd
00000360: 612b 19be 701f dabc 0aa5 27be 00b1 a93a
00000370: 34cd ddbd 3675 afbd 8a10 d53d da00 7cbd
00000380: 6a15 ce3d a284 88bd cefc 64bd a379 a3bd
00000390: 2d1e 12bd 58ec a13d fe7e a3bd 0cb7 1f3d
000003a0: 33f4 9bbd fe7e bc3d 16c9 60be 7530 a4bd
000003b0: 3ef4 7abe dac2 afbd b0d5 fa3d a2a5 5bbd
000003c0: 606c 783d 9c39 61bd f546 0dbe 5a59 31be
000003d0: 6b8a 2bbd 8c08 58be 24c4 29be 69ab 03be
000003e0: 2840 62be b4e4 443d f2c5 98bd cc6c 2abe
000003f0: b024 63bc 5cfa a13d 5fd7 9dbd e816 a3bd
-0.18055396 -0.25826257 -0.029405896 -0.054358643 -0.047332115 -0.099849775 0.032396242 -0.25758085
-0.099750206 0.037405387 -0.041222274 -0.12744592 -0.010522008 0.1025798 -0.1569391 -0.041821346
-0.17617139 -0.18032081 -0.098632336 -0.24736571 -0.0809169 0.008918688 -0.22183439 -0.06810893
-0.12662996 0.05551748 -0.08138673 -0.10003452 0.09965353 -0.004513659 0.014277086 -0.015464106
-0.024992138 -0.10044513 -0.17195722 -0.16277671 -0.110001154 0.052885383 -0.021230549 0.05616255
0.018408837 0.04309416 -0.041452467 -0.19459595 -0.17534702 -0.13678731 -0.07132129 0.11133139
0.12346879 0.017920688 -0.19922745 -0.06348911 -0.256887 -0.18980628 -0.032290235 -0.28226113
-0.09487894 0.08479504 0.08685419 -0.2378521 -0.030444697 0.063713446 -0.009090393 -0.02767203
-0.08402781 -0.014753703 0.01856141 -0.1387469 -0.13942452 -0.19559915 0.08694017 -0.15608737
-0.015276179 0.072597034 -0.073960334 -0.1907837 0.11276513 -0.019168898 -0.11890196 -0.011649638
-0.15958089 0.042110097 -0.01848948 -0.18528931 0.024272112 0.11409578 -0.107144326 -0.109656535
-0.14496806 0.10539824 0.035607196 -0.07225147 0.049614415 -0.037730183 0.08773002 -0.13586189
-0.10150276 -0.17735207 -0.068368345 -0.11955459 -0.13136221 0.02390787 0.019559652 0.009294555
0.05841175 0.0043148547 0.0030953486 -0.11609566 0.040928744 -0.06359921 0.0384911 -0.0076547414
-0.01502347 -0.1218214 -0.14360872 -0.058182407 -0.13453719 -0.19494364 -0.21344946 -0.13690756
-0.060965385 0.11913726 -0.112393185 -0.18182415 -0.041660592 0.07664257 -0.18714574 -0.13996156
-0.21961212 -0.092737705 0.02489902 -0.10210661 -0.109184526 -0.050938413 0.11900532 -0.035098284
-0.06917352 0.018706694 0.06323628 -0.08375374 -0.008075103 0.035612598 -0.05530882 0.07668671
-0.11934926 -0.018478224 -0.2246966 -0.1436853 -0.1255377 0.083947904 -0.20727918 0.08133715
-0.19805543 -0.08309747 -0.0123039605 -0.051937267 0.08547965 -0.048186734 -0.0433743 0.010834466
-0.11129741 -0.05876471 -0.15104577 -0.10432835 -0.035512783 0.015936092 -0.07248554 -0.09798674
-0.09364088 0.055742938 -0.18128937 -0.005013604 0.02292119 -0.117115624 0.10875778 -0.010386508
0.073311955 0.03644553 -0.20099492 -0.04150038 -0.14375678 -0.20148383 0.0213315 -0.16866931
-0.04696259 0.11207797 0.017231211 -0.07989239 0.0957185 -0.029412553 -0.09659089 -0.10867131
-0.17411603 -0.08190494 0.042119987 -0.042981654 -0.020687006 -0.030661503 -0.05520472 -0.0872325
0.091528535 -0.069650255 -0.02722539 -0.24626821 0.0068104714 -0.03094092 -0.24659762 0.10205497
-0.18537673 -0.05447765 -0.05819687 -0.13049269 -0.112137355 -0.03767618 -0.22088727 -0.09677131
-0.14957954 -0.026626319 -0.16371551 0.0012946427 -0.10830155 -0.08567278 0.10403545 -0.06152425
0.10062678 -0.06665923 -0.055905156 -0.07982185 -0.03567331 0.07906407 -0.07983206 0.038992926
-0.07614937 0.09203909 -0.21951708 -0.08017055 -0.24507234 -0.08582087 0.12247789 -0.053624757
0.06065023 -0.05498658 -0.13796599 -0.17319241 -0.041880053 -0.2109701 -0.16578728 -0.12858357
-0.22094786 0.04806967 -0.0745963 -0.16643065 -0.013863727 0.079090804 -0.077070944 -0.079633534

layers.4.bias f4 [81]
00000000: 4dde 0b3d 0db2 09be cea1 31be c747 3dbe
00000010: 4e44 f2bd 7a3e 0ebd a1ed 40be d969 04be
00000020: 2a22 fdbc 0217 79b9 ab61 a1bd 5ddd 09be
00000030: 5f4c 43bd 0ef7 67bd b6a4 49bd badd f1bd
00000040: 0bcb 1fbe 9d9c 20be 61a7 acbd eba3 49be
00000050: 9fd1 50be e45a 9dbc e54d 32be 7ae2 2abe
00000060: 5c1e fabd 43df 20bb 66d8 51be 1c8d bc3c
00000070: 3523 c33c 6c54 21be 2f17 7fbd ca53 413d
00000080: 3eec 183d 8575 43be ab5f 12be 362b 40be
00000090: 7bf6 cabd 1d0e fcbd 375d 2cbd 41ea 6cbd
000000a0: 5ac7 413b 6780 18be 3ea0 a6bb 253b fabc
000000b0: 99d3 0dbd 4692 1cbe bd46 05be 1fa6 47be
000000c0: db8f cfbd e5bc babd 8545 94bd b9dc e3bc
000000d0: 17e0 e4bc ef71 19be dd2d 53be 3cb4 26bd
000000e0: 1c07 b7bd 629d 8ebd 5349 40bd 4dde 31be
000000f0: 56da 3d3d 958e 11be 8768 2fbd a70f b0bd
00000100: 5290 11be df08 2bbd 221f 98bd 5faf 9dbd
00000110: cbc5 383b b76b 11be e54d 26b9 026a dcbd
00000120: 3d95 c8bd 0d54 c2bd de35 5cbe b42b 5b3d
00000130: 7c1f 6fbc 745b c83c 14c0 31be 74a2 47be
00000140: d7ce efbc
0.03414755 -0.13446827 -0.1734688 -0.18484412 -0.11829434 -0.03472755 -0.18840648 -0.12931003
-0.03090008 -0.00023755062 -0.07879957 -0.1346335 -0.047680255 -0.056632094 -0.049229346 -0.11809869
-0.15604798 -0.15684743 -0.084303625 -0.19691436 -0.20392464 -0.01920838 -0.17412527 -0.16687956
-0.12212822 -0.0024547137 -0.20492706 0.023016505 0.023820499 -0.1575486 -0.06227797 0.047199048
0.037334673 -0.19087799 -0.14294307 -0.18766484 -0.09910294 -0.123073794 -0.042081084 -0.05784059
0.0029568286 -0.14892732 -0.0050850203 -0.03054578 -0.034625623 -0.15290174 -0.13015266 -0.19496964
-0.1013486 -0.0911806 -0.07239822 -0.02781521 -0.027938886 -0.14984868 -0.20622964 -0.04069923
-0.08936903 -0.06963612 -0.046944927 -0.17369957 0.0463508 -0.14214547 -0.042824294 -0.085967354
-0.1421521 -0.041756507 -0.07427813 -0.07699465 0.0028194066 -0.14201246 -0.00015860012 -0.10762407
-0.0979409 -0.09488688 -0.21504924 0.053508475 -0.014594909 0.02445767 -0.17358428 -0.19495565
-0.029273434
